0: watch
1: motorbikes
2: airplanes
_________________________________________________________________
Layer (type)                 Output Shape              Param #
=================================================================
input_1 (InputLayer)         (None, 40, 60, 3)         0
_________________________________________________________________
conv1 (Conv2D)               (None, 40, 60, 16)        1216
_________________________________________________________________
activation_1 (Activation)    (None, 40, 60, 16)        0
_________________________________________________________________
maxpool1 (MaxPooling2D)      (None, 20, 30, 16)        0
_________________________________________________________________
conv2 (Conv2D)               (None, 20, 30, 32)        12832
_________________________________________________________________
activation_2 (Activation)    (None, 20, 30, 32)        0
_________________________________________________________________
maxpool2 (MaxPooling2D)      (None, 10, 15, 32)        0
_________________________________________________________________
flatten_1 (Flatten)          (None, 4800)              0
_________________________________________________________________
fc_hidden (Dense)            (None, 256)               1229056
_________________________________________________________________
dropout_1 (Dropout)          (None, 256)               0
_________________________________________________________________
fc_output (Dense)            (None, 3)                 771
=================================================================
Total params: 1,243,875
Trainable params: 1,243,875
Non-trainable params: 0
_________________________________________________________________





Epoch = 0
=========

 32/366 [=>............................] - ETA: 6s
 64/366 [====>.........................] - ETA: 3s
 96/366 [======>.......................] - ETA: 2s
128/366 [=========>....................] - ETA: 1s
…
